…
[23:13:07.278] Dataset summary:
                     size : 55,257
     modified_base_labels : True
                mod_bases : ['T', 'm']
           mod_long_names : ['T', '5mC']
       kmer_context_bases : (4, 4)
            chunk_context : (50, 50)
                   motifs : [('Y', 0)]
           reverse_signal : True
 chunk_extract_base_start : False
     chunk_extract_offset : 0
               pa_scaling : None
          sig_map_refiner : Loaded 5-mer table with 2 central position. Rough re-scaling will be executed.

[23:13:07.283] Loading model
[23:13:08.323] Model structure:
network(
  (sig_conv1): Conv1d(1, 4, kernel_size=(5,), stride=(1,))
  (sig_bn1): BatchNorm1d(4, eps=1e-05, momentum=0.1, affine=True, track_running_stats=True)
  (sig_conv2): Conv1d(4, 16, kernel_size=(5,), stride=(1,))
  (sig_bn2): BatchNorm1d(16, eps=1e-05, momentum=0.1, affine=True, track_running_stats=True)
  (sig_conv3): Conv1d(16, 64, kernel_size=(9,), stride=(3,))
  (sig_bn3): BatchNorm1d(64, eps=1e-05, momentum=0.1, affine=True, track_running_stats=True)
  (seq_conv1): Conv1d(36, 16, kernel_size=(5,), stride=(1,))
  (seq_bn1): BatchNorm1d(16, eps=1e-05, momentum=0.1, affine=True, track_running_stats=True)
  (seq_conv2): Conv1d(16, 64, kernel_size=(13,), stride=(3,))
  (seq_bn2): BatchNorm1d(64, eps=1e-05, momentum=0.1, affine=True, track_running_stats=True)
  (merge_conv1): Conv1d(64, 64, kernel_size=(5,), stride=(1,))
  (merge_bn): BatchNorm1d(64, eps=1e-05, momentum=0.1, affine=True, track_running_stats=True)
  (lstm1): LSTM(64, 64)
  (lstm2): LSTM(64, 64)
  (latent_fc4): Linear(in_features=64, out_features=32, bias=True)
  (latent_fc5): Linear(in_features=64, out_features=32, bias=True)
  (activation): Tanh()
  (fc1): Linear(in_features=32, out_features=1, bias=True)
  (fc2): Linear(in_features=32, out_features=1, bias=True)
  (fc3): Linear(in_features=32, out_features=1, bias=True)
  (fc4): Linear(in_features=32, out_features=2, bias=True)
  (fc5): Linear(in_features=32, out_features=3, bias=True)
  (fc6): Linear(in_features=32, out_features=1, bias=True)
  (dropout): Dropout(p=0.3, inplace=False)
)
[23:13:08.324] Gradients will be clipped (by value) at 0.00 MADs above the median of the last 1000 gradient maximums.
[23:13:11.760] Params (k) 117.80 | MACs (M) 6329.27
[23:13:11.760] Preparing training settings
[23:13:15.190] Training optimizer and scheduler settings: TrainOpts(epochs=100, early_stopping=10, optimizer_str='AdamW', opt_kwargs=(('weight_decay', 0.0001, 'float'),), learning_rate=0.001, lr_scheduler_str='CosineAnnealingLR', lr_scheduler_kwargs=(('T_max', 100, 'int'), ('eta_min', 1e-06, 'float')), lr_cool_down_epochs=5, lr_cool_down_lr=1e-07)
…
